FORECAST/best_model.pth (torch, 312802 bytes, 10 tensors)

raw_task_weights f4 [90]
000000 d0 09 80 3f 42 c6 7f 3f 6e 04 80 3f b9 2d 80 3f
       1.0002995 0.9991189 1.0001352 1.0013953
000010 2b e8 7f 3f 0f ac 7f 3f 96 12 7f 3f 53 0a 80 3f
       0.99963635 0.99871916 0.99637735 1.0003151
000020 5f dd 7f 3f 04 12 80 3f 7d 34 80 3f a5 e1 7f 3f
       0.9994716 1.0005498 1.0016018 0.9995368
000030 3d 29 80 3f 62 6a 80 3f 3f bf 7f 3f 9a 74 7f 3f
       1.0012585 1.0032465 0.99901193 0.99787295
000040 51 10 80 3f ff a1 7f 3f c6 1b 80 3f 60 5e 7f 3f
       1.0004979 0.9985656 1.0008476 0.9975338
000050 ac 85 7f 3f 2f d0 7f 3f 21 1d 80 3f e8 1c 80 3f
       0.9981334 0.9992704 1.000889 1.0008821
000060 c4 47 7f 3f 3e 5b 7f 3f eb 1b 80 3f ca 04 80 3f
       0.9971888 0.997486 1.000852 1.0001462
000070 6a 11 80 3f ad 94 7f 3f ac e8 7f 3f 53 5f 7f 3f
       1.0005314 0.99836236 0.99964404 0.9975483
000080 bc 4e 80 3f 47 66 80 3f e3 3c 80 3f 3f 67 7f 3f
       1.0024028 1.0031213 1.0018581 0.99766916
000090 c5 0c 7f 3f e0 11 80 3f df a6 7f 3f b6 56 80 3f
       0.9962886 1.0005455 0.99864 1.0026462
0000a0 d7 0e 80 3f 63 4a 80 3f f5 b6 7f 3f 1f ff 7f 3f
       1.0004529 1.0022701 0.99888545 0.9999866
0000b0 97 20 7f 3f 13 f9 7f 3f 5d 1c 80 3f e6 78 80 3f
       0.99659103 0.9998943 1.0008656 1.0036895
0000c0 4d db 7f 3f 6b 8f 7f 3f bc e3 7d 3f f3 00 80 3f
       0.99944 0.99828213 0.9917562 1.000029
0000d0 8d f4 7f 3f 7a 0d 80 3f bb eb 7e 3f cc 62 80 3f
       0.9998253 1.0004113 0.99578446 1.003015
0000e0 05 1c 80 3f 08 3b 80 3f 44 08 80 3f 61 21 80 3f
       1.0008551 1.0018015 1.0002522 1.0010186
0000f0 ea 3a 7f 3f 2f 1b 80 3f 3c 86 80 3f b0 b0 7f 3f
       0.9969927 1.0008296 1.0040965 0.9987898
000100 71 e3 7f 3f 76 2e 80 3f 62 d0 7f 3f ab 3c 80 3f
       0.99956423 1.0014179 0.9992734 1.0018514
000110 bd 2a 80 3f 89 b0 7f 3f c7 cf 7f 3f bd 02 80 3f
       1.0013043 0.99878746 0.9992642 1.0000836
000120 8f 51 80 3f 39 cd 80 3f 9a af 7e 3f 91 13 80 3f
       1.002489 1.0062629 0.99486697 1.0005971
000130 5d 02 80 3f 08 d8 7f 3f 55 4a 7f 3f fd aa 7f 3f
       1.0000721 0.9993901 0.99722797 0.9987028
000140 2f 00 80 3f b3 65 7f 3f bc b1 7f 3f ad b3 7f 3f
       1.0000056 0.99764556 0.99880576 0.9988354
000150 e5 6e 7f 3f 85 15 80 3f cd 8a 7f 3f 48 57 7f 3f
       0.99778587 1.0006567 0.9982117 0.99742556
000160 8f 6e 7f 3f 4c 0b 80 3f
       0.99778074 1.0003448

lstm.weight_ih_l0 f4 [256, 1]
000000 a4 bd 26 3f b7 02 b2 be ce 47 07 3f 4f 36 19 3f
       0.6513312 -0.34767696 0.5284394 0.59848493
000010 28 ae bf bf 1a e1 39 bf 88 e6 60 3e 8c 50 19 be
       -1.4975023 -0.726091 0.2196294 -0.14972132
000020 8d fc d8 bd 2d 45 fd 3d 4a 5b e4 bd f4 ed 1b 3f
       -0.10595045 0.1236671 -0.111502245 0.6090996
000030 46 0a 06 3e 83 c7 cc 3e d1 25 2a be 0e 78 01 3f
       0.13089857 0.39995965 -0.16615988 0.50573814
000040 3f aa f7 3d 50 5a 21 be f4 6d 98 be 59 76 85 3f
       0.12093019 -0.15757108 -0.29771388 1.0426742
000050 dd 62 21 3f 59 af 88 be 49 23 68 3d 13 e7 8c be
       0.6304148 -0.2669628 0.056674276 -0.27520046
000060 e8 0a 1c bf c3 86 3e 3c 06 ae 88 bf a2 d2 66 3f
       -0.6095414 0.011628809 -1.0678108 0.9016515
000070 b9 c3 7b 3f bd 2f fe be 85 dc fd bd d8 e0 c6 3c
       0.98345524 -0.49645796 -0.123955764 0.024277136
000080 44 96 f5 3e a4 8d 73 3e 54 32 b5 3d 9d 17 b6 bd
       0.47966206 0.237845 0.0884749 -0.088912226
000090 9d 70 5c bf f0 88 7c bd 42 19 34 bf fd ea a4 3e
       -0.86109334 -0.06165403 -0.7035104 0.32210532
0000a0 8f 42 00 c0 9f 71 20 3e 0a d0 d4 3b 1d 5e 71 3f
       -2.0040624 0.15668343 0.0064945268 0.9428423
0000b0 38 f2 a0 be 87 3b 1f be 18 97 fa 3e 06 31 5f be
       -0.31434798 -0.15550052 0.489434 -0.21796045
0000c0 af fc 71 bd 7e f7 87 be a6 21 78 bd da 0f ca 3e
       -0.05907887 -0.2655601 -0.060578965 0.3946522
0000d0 2f ec 89 be ac 15 6a be d4 86 68 bf fc 80 76 bd
       -0.26938006 -0.2285983 -0.9083073 -0.060181603
0000e0 1c a5 29 3f 9a dd 5b bf a2 e8 0e bd 0f c4 82 be
       0.6626756 -0.8588501 -0.034889825 -0.25540206
0000f0 30 0d 9b 3e 5d a3 42 bf 46 a4 ae bb cf ec 08 bf
       0.302835 -0.7603052 -0.0053296415 -0.5348634
000100 31 bf ef bf 05 73 95 bf 67 46 0a bf 30 a1 df 3e
       -1.8730222 -1.1675726 -0.54013675 0.43677664
000110 bf cb a4 bf 82 90 a4 be 2f a6 45 bf 03 95 76 bf
       -1.2874678 -0.321415 -0.772067 -0.96321124
000120 a5 0a e3 3d 62 8c aa 3e 15 b4 c6 3e 05 fb ca 3e
       0.11086015 0.3331023 0.38809267 0.39644638
000130 48 3e af 3c f7 80 70 3e e4 2f ad bc b5 8e 74 bf
       0.021392003 0.23486696 -0.021141 -0.95530254
000140 ac be bc bc c8 6a ce 3e 74 ba 51 3d f2 3e 83 3f
       -0.023040138 0.40315843 0.051203206 1.0253584
000150 af b0 e7 bf 2f 69 49 3f a4 23 05 bf 64 2e f0 be
       -1.8100795 0.7867612 -0.5200751 -0.46910393
000160 77 a2 92 be 02 f3 37 3d dc d8 a7 be f5 12 2e bf
       -0.28639576 0.044909485 -0.32782638 -0.67997676
000170 b1 70 b6 3e 1f 19 c1 bd 89 a0 e5 3e 73 98 39 bf
       0.35632852 -0.094286196 0.4484904 -0.72498244
000180 44 66 ec 3e f8 d1 9e 3e bf 0c dc bd 01 dd 3d 3e
       0.46171772 0.31019568 -0.107446186 0.18541338
000190 53 0f ab 3e 4b 9f e6 3b c1 c2 26 3e ea 9d 2c 3f
       0.3341013 0.007038032 0.1628523 0.6742846
0001a0 2c bf 17 c0 0a d7 57 3f 9b 5b bb be 03 6b b2 be
       -2.3710432 0.843125 -0.36593327 -0.34847268
0001b0 89 8d 6f bb 46 5b 29 3f fe 15 13 3f 79 61 05 3f
       -0.0036552867 0.661549 0.5745543 0.52101856
0001c0 ae 7d 28 3f fd 35 12 3e 41 52 0b 3f 1b 5c d4 bd
       0.6581677 0.14278407 0.54422385 -0.1036913
0001d0 30 d7 1f 3f 90 18 bd 3c f0 0c 52 3e dd 4d f9 3e
       0.62437725 0.023083001 0.20512748 0.48692217
0001e0 64 1d e9 be 21 18 a4 3d 65 3a cd be e8 a8 ec 3e
       -0.45530236 0.08012415 -0.40083614 0.46222615
0001f0 b8 56 dd 3e 7b 87 88 3b 8f b7 89 3f 87 dc b3 be
       0.43230224 0.004166541 1.0759143 -0.35129187
000200 8b 86 f9 bf 55 2b ef be 92 6f 87 bf a8 16 b1 3f
       -1.9494184 -0.46712747 -1.0580924 1.3835039
000210 af b7 3f 3f 55 ba 03 be 27 d5 b6 3f 9a 81 0b 40
       0.74889654 -0.12864049 1.4283799 2.1797853
000220 60 e4 4a 3f cd b4 aa be af 31 af be 12 49 b7 3f
       0.7925472 -0.33341065 -0.34217593 1.4319174
000230 44 a7 db 3e 82 b8 3e bf df f8 d8 be cc 99 b3 3f
       0.4290105 -0.74500287 -0.42377374 1.403131
000240 f9 6b f6 3e f8 82 db 3c bc 11 8f be 29 86 85 bf
       0.48129252 0.02679585 -0.27943218 -1.0431567
000250 f0 7c d0 3f 9c 7b a3 3d 6f d1 1e bf 2c 2c 8f 3f
       1.6288128 0.07982561 -0.6203832 1.1185355
000260 83 78 35 3f 5e 7c 21 3f ff a9 89 bd ea 98 c1 3f
       0.7088701 0.63080394 -0.06721877 1.5124791
000270 68 59 85 bf 89 cb 81 bf dc 0f 08 3e 94 ed 7e bf
       -1.041791 -1.0140239 0.132873 -0.99581265
000280 f7 7b 7a bf fc 0b 3b bf ea ae 0a 3f 1b 09 f3 3e
       -0.97845405 -0.7306516 0.5417315 0.47467884
000290 22 0b ca be 4b 1c 53 3f a5 6c cb be 59 f2 0e bf
       -0.3946162 0.82465047 -0.39731327 -0.55838543
0002a0 57 42 86 be c8 d6 ce 3e 93 fc b2 3f 17 42 c8 bf
       -0.26222488 0.4039824 1.398333 -1.5645169
0002b0 19 32 5c be 09 6f 50 3f e6 fa 93 3f 2a a5 31 bf
       -0.21503486 0.81419426 1.1560943 -0.69392645
0002c0 9c c3 e7 3d cc 49 be bc 64 c5 15 3f f3 43 ce 3f
       0.113166064 -0.023228548 0.5850432 1.6114486
0002d0 52 92 65 bd fe de 32 bf 9b 1f 45 3d 45 54 49 3f
       -0.056047745 -0.6987151 0.048125844 0.7864421
0002e0 14 ac 88 bf 68 54 b3 bd 60 49 54 3f 24 58 37 bf
       -1.0677514 -0.087563336 0.8292446 -0.71618867
0002f0 80 54 48 bf c1 d2 c9 be 28 4a 1f 3f 12 6a e4 3e
       -0.78253937 -0.39418605 0.6222253 0.44612175
000300 1e e5 40 3f a5 0d 84 be f5 b9 1b 3f 3f 26 4d 3f
       0.75349605 -0.2579166 0.6083062 0.80136484
000310 ec d1 8c bf 9a 47 9a be 3a 30 79 3e 7b aa 91 bd
       -1.1001563 -0.30132753 0.24334803 -0.07112595
000320 e9 44 91 bd 5a 95 e1 3d 58 ac 19 3f b0 34 e9 3e
       -0.07093222 0.11014815 0.600286 0.4554801
000330 a1 74 83 3e 52 e5 e4 3e 39 d8 6c be 47 a4 f5 3e
       0.25674918 0.44706208 -0.23129357 0.47976896
000340 c5 d1 3c 3b be 71 e3 3d 8f 0b 97 be 0f c7 af 3f
       0.0028811556 0.11105679 -0.29501006 1.3732623
000350 95 2c 00 3f a9 96 e0 3e 69 af ee bd 67 ac c9 be
       0.50068027 0.43864945 -0.116545506 -0.39389345
000360 fa 0a 21 bf 0a 49 12 bf f1 f9 ac be 18 81 ac 3f
       -0.62907374 -0.571427 -0.3378444 1.3476896
000370 e4 e6 61 3f e8 92 0b bf 3c c4 91 3d fc 4d 82 bc
       0.88242936 -0.54521036 0.07117507 -0.015906326
000380 97 91 79 be 0b 2f 8d 3d cc 50 5c 3c 23 65 fc ba
       -0.24371944 0.06893738 0.013446998 -0.0019256215
000390 c3 b7 01 bf 05 87 00 bf df 8c fc bd c0 3b bb 3e
       -0.50671023 -0.50206023 -0.123315565 0.36569023
0003a0 f6 cc eb bf 5a 76 11 3e 01 4a 73 3b 61 ca 62 3f
       -1.8421924 0.14205304 0.0037122967 0.88590056
0003b0 3f 41 cd bd a3 7f 4e 3e 78 8f 2d 3f 96 81 2d 3f
       -0.1002221 0.20165877 0.6779704 0.6777586
0003c0 c0 52 f3 3e 6a c5 94 3e 74 27 c7 3e d0 22 ef 3e
       0.4752407 0.29056865 0.38897288 0.46706247
0003d0 91 1d bc 3e cc 68 47 be 04 96 a8 bd 8f c5 d2 be
       0.36741307 -0.1947357 -0.08231738 -0.4116635
0003e0 cb c6 60 3f b8 f3 ac bc e0 06 91 bd f6 0b cc bd
       0.87803334 -0.021112308 -0.070813894 -0.09963219
0003f0 07 1f 12 3f b9 60 51 be ff fb 88 3e ef f2 e2 be
       0.57078594 -0.20447053 0.26754758 -0.4432597

lstm.weight_hh_l0 f4 [256, 64]
000000 9a c2 7f 3f 53 e6 2f 3f f3 be 61 3f 67 be 5b 3f
       0.99906313 0.6871082 0.8818199 0.85837406
000010 ff 87 81 be 27 6a 94 bf 90 b4 0e bd 07 ac 09 bf
       -0.2529907 -1.1594895 -0.034840167 -0.5377812
000020 66 19 1b be 1a 4f 2d 3d f1 7f 50 bf 13 1d cd 3c
       -0.15146407 0.042311765 -0.81445223 0.025038278
000030 5d 98 3f be 7c 90 0f bf a0 68 c7 3e 59 21 61 bf
       -0.18710466 -0.5607984 0.3894701 -0.8794151
000040 b0 9a 81 be fc 56 08 3f e5 c8 48 be 2a ad db 3d
       -0.2531333 0.5325773 -0.19607885 0.10726388
000050 5c b9 d5 bf 3b 81 59 be 61 19 c4 3e 3c 79 3a bf
       -1.6697192 -0.21240704 0.38300613 -0.7284124
000060 13 bd 9e 3e 69 14 69 3d af 00 55 bf f1 39 5c bf
       0.31003627 0.05690423 -0.8320417 -0.8602591
000070 62 59 a2 3e b0 23 19 3f 96 4a f8 3d 94 09 d3 3e
       0.3170882 0.5982008 0.12123601 0.41218245
000080 3a bb b9 3e 62 34 23 3f cb 1e 29 3e 73 b5 0f bd
       0.36275655 0.63751805 0.16515653 -0.035085153
000090 7b 18 b9 3e 61 9a d1 3e f8 b3 7e bf c0 df 3d 3f
       0.3615149 0.40938094 -0.9949336 0.7416954
0000a0 a0 10 98 3f f8 32 97 be a3 d3 02 3e 39 30 4b 3f
       1.1880074 -0.29531074 0.12776046 0.79370457
0000b0 a2 50 a1 3e 4d 76 91 be da ff cc be 98 d7 a8 3f
       0.3150683 -0.2841057 -0.4003895 1.3190794
0000c0 95 63 0b 3e bb 2c 34 3f 6a 9c 8d 3f 5d 18 9f 3e
       0.13612206 0.70380753 1.1063359 0.31073275
0000d0 69 63 6d 3f da b5 4f 3f 74 7d 0c 3f 54 82 10 3f
       0.9272981 0.8113686 0.54878926 0.56448865
0000e0 0e 03 84 3f 65 c3 14 3f e8 4d d9 be 57 63 39 3f
       1.0313432 0.5811065 -0.4244225 0.72417206
0000f0 10 5f b4 3d 3b e8 e7 be 8a 75 1f 3f 52 14 b1 bf
       0.08807194 -0.45294365 0.62288725 -1.3834326
000100 f0 73 4b 3d b6 f0 09 bf b5 58 50 bd c4 43 1e be
       0.049671113 -0.5388292 -0.050865848 -0.15455538
000110 c5 dd 89 3e 16 cf b9 3d fc b4 8a 3e 06 99 72 be
       0.2692701 0.09072702 0.27091205 -0.23691186
000120 8e 76 55 be 7c 32 4e be 81 3d 40 be 28 a2 31 bf
       -0.20846006 -0.20136446 -0.18773462 -0.69388056
000130 c7 63 a7 3d ce d5 fc be 0e 56 02 bf f0 24 4e be
       0.08173328 -0.4938187 -0.5091256 -0.20131278
000140 43 fb 85 be 4d d0 f6 be 1c d9 f6 3e 8f ce 41 3f
       -0.2616826 -0.48205796 0.48212516 0.7570581
000150 30 78 04 3f 4a 1c 1c 3e 9a 0c 50 3e 28 e9 42 be
       0.5174589 0.15245166 0.20317307 -0.19034255
000160 1e 12 bd 3e 90 fe fc be 9d db c2 be 7f c0 70 3e
       0.36927885 -0.49412966 -0.38058177 0.23510931
000170 7d a6 b2 3e 73 9a 08 3f 9b 42 9a be 44 ce b8 3d
       0.34892645 0.5336067 -0.3012894 0.09023717
000180 25 ea 4f 3f 0e 45 62 3e fb 82 49 be 8e 72 da be
       0.8121665 0.22096655 -0.19678871 -0.42665523
000190 00 fa cc 3d 5b db 2c bf a9 12 5c 3f 2e 20 7e 3e
       0.10008621 -0.6752221 0.85965973 0.24816963
0001a0 25 8d 32 bf 2c 51 5c bd 57 a6 32 bf f8 ac 90 3e
       -0.6974662 -0.05378835 -0.69785064 0.28256965
0001b0 03 30 5d 3d 84 dd 94 be bd c7 51 bf 15 a6 9c 3e
       0.054000866 -0.29075253 -0.819454 0.3059546
0001c0 15 d2 13 be d2 87 81 bc 3e db 1a bf 06 6d 04 3f
       -0.14435609 -0.015811834 -0.6049079 0.51728857
0001d0 03 13 38 3e 9e 82 87 3e 92 21 66 be 3d 63 89 be
       0.17976002 0.2646684 -0.22473744 -0.26833525
0001e0 d5 c7 76 3e f9 15 08 3f 11 27 ba be dc 41 fd 3e
       0.24099667 0.5315853 -0.3635793 0.4946431
0001f0 77 66 3d 3f 4c cd db be 6d 94 00 bf 8f 00 1a be
       0.73984474 -0.42930067 -0.5022648 -0.15039276
000200 35 67 30 3f a8 b6 29 bf 08 a6 9f 3e 5c b4 2c 3f
       0.6890748 -0.66294336 0.3118136 0.67462707
000210 db 06 31 3f 3c af 17 bf 1f 24 88 bd ff 8c e7 be
       0.69151086 -0.5925176 -0.066475146 -0.4522476
000220 81 c3 61 be be b9 c6 3e f7 f1 c2 be 8d 89 22 3e
       -0.22047235 0.38813585 -0.3807523 0.15872784
000230 4f 9b e0 3e 01 21 af bf ef 20 9a be e6 0d 00 3e
       0.4386849 -1.3681947 -0.3010325 0.12505302
000240 85 04 00 bf dd 46 c0 be 8f 24 ec be a9 ee 29 3c
       -0.50006896 -0.37554064 -0.46121642 0.010371842
000250 35 64 32 bf 8a 5a 33 bd b8 aa 74 bd a8 0e 56 be
       -0.69684154 -0.043787517 -0.059733123 -0.20904028
000260 b7 89 b4 3f 9b b7 cf be d2 fd cf be 13 7c 2e 3f
       1.4104527 -0.40569767 -0.40623337 0.6815807
000270 90 8a 71 3d 5f 11 07 3f c8 82 00 bf 99 93 d3 be
       0.058970034 0.5276088 -0.50199556 -0.41323546
000280 92 75 5e 3e 08 65 a5 3d 2a 85 0b bd 4f 9a 37 bf
       0.21724537 0.08075911 -0.034062542 -0.7171983
000290 0b f8 cb 3e 7d 05 58 be 9f b4 42 bf 35 94 c4 3e
       0.3983768 -0.21095844 -0.76056856 0.38394323
0002a0 ac d2 ff 3e a7 47 9a 3e 64 d2 bc be 37 bd b7 3d
       0.49965417 0.3013279 -0.36879265 0.08971637
0002b0 2b 0d c8 be 44 0b 4c 3f be 63 46 be 19 de 45 3f
       -0.39072546 0.7970469 -0.19373986 0.7729202
0002c0 d2 cc 76 bf ff 24 21 3f 06 91 2f 3f 63 55 9c 3f
       -0.9640628 0.62947077 0.68580663 1.2213558
0002d0 c0 6e 34 bf 20 77 1b be a2 62 5f bf bf 36 d8 3e
       -0.7048149 -0.15182161 -0.87259877 0.42229268
0002e0 fd 4d 98 3f ea ce 55 bf 5c e4 92 3e 2e e4 df bd
       1.18988 -0.8351885 0.2868985 -0.10932194
0002f0 c2 e7 3a bf 73 95 ae be b0 0a 05 3f bd 06 fd be
       -0.73009884 -0.34098396 0.5196943 -0.49419203
000300 b5 c9 24 3e b7 5b ea 3c 28 b7 28 3d 1d 21 7a 3f
       0.1609257 0.028608186 0.041190296 0.97706777
000310 00 4a 22 3f 3d ce 37 bf 50 2e ab 3e 8e 63 1e be
       0.63394165 -0.7179907 0.3343377 -0.15467665
000320 ca c9 81 be 09 d7 5d bc 61 65 6c 3e c6 7a 8c 3e
       -0.25349265 -0.013540038 0.23085548 0.2743742
000330 77 04 39 bf 78 77 d1 be 98 83 83 bf 49 58 e5 3d
       -0.7227244 -0.4091146 -1.0274534 0.1119848
000340 55 1c fe 3d f2 0f 0f bf 2f a0 3d bf cd 14 a9 be
       0.12407748 -0.55883706 -0.74072546 -0.33023682
000350 b6 c7 90 3f d3 bf e9 be 58 df 78 3e 6f af 04 3f
       1.1310947 -0.45654163 0.24303949 0.5183019
000360 51 c7 fd 3e 9f bd 07 3f eb 86 b4 be 4d ba 5f 3e
       0.4956613 0.53023714 -0.35259184 0.21848412
000370 76 5c 88 bf c8 74 55 3e 75 e7 b9 be c5 15 57 3e
       -1.0653217 0.2084533 -0.363094 0.21004398
000380 0a fa 5f be 69 64 5c 3e c8 e3 26 bd ce 72 9e 3e
       -0.21872726 0.21522678 -0.040744573 0.30946964
000390 e2 7e 9e 3e 56 5c 57 3f 2d b8 26 bf 37 72 b5 3e
       0.3095618 0.8412527 -0.6512478 0.35438702
0003a0 5c b9 e1 3d 91 82 b0 3e d3 a2 bb be 70 0c a5 be
       0.110216826 0.34474614 -0.36647663 -0.32236052
0003b0 bc 73 cf 3e 48 0d 39 3f 90 88 09 3f 66 7c ee 3d
       0.40517986 0.7228589 0.53724 0.11644821
0003c0 84 b5 f5 3c 5b de f0 3e 84 8e af 3e 65 5d 35 3f
       0.02999378 0.47044644 0.34288418 0.70845634
0003d0 8c b8 7f be 23 96 e2 3e 30 fe 55 3d 71 d2 d2 3e
       -0.24972743 0.4425517 0.052244365 0.4117618
0003e0 a5 af 28 bf a2 76 41 bd 69 16 87 bd 40 db dd 3d
       -0.6589301 -0.047232278 -0.06596071 0.10832834
0003f0 18 e9 ad bd 97 08 8f be 0c 34 3f 3f 1b e1 c6 be
       -0.08491725 -0.2793624 0.7468879 -0.38843617

lstm.bias_ih_l0 f4 [256]
000000 d1 4c 8b 3e 76 77 68 bd b5 4f 5d 3d af 58 36 3e
       0.27207044 -0.05675455 0.054031093 0.17807268
000010 36 7e 1b bf ba 10 2b bf e2 9f 84 3d 65 41 ac 3e
       -0.6073946 -0.668224 0.06475808 0.33643642
000020 53 82 a1 be 32 b0 b8 be 3c 4d 20 bf df 7c 1e 3f
       -0.31544742 -0.36071926 -0.6261785 0.6190929
000030 1f 00 3c be 20 90 c0 3d 3c ec 11 3e 36 fb 5b 3f
       -0.18359421 0.0940249 0.14250273 0.8593019
000040 40 26 2a bd 27 27 ec 3e 59 b6 8f be 75 51 42 be
       -0.041540384 0.4612362 -0.28068808 -0.18976386
000050 07 ac b7 3e 43 6a f2 be 6c 0e 8f bd 3f 90 2d be
       0.35873434 -0.47346696 -0.06985173 -0.16949557
000060 20 aa 6a be 24 a8 b6 bd 2a 88 7e be 18 4a cd 3e
       -0.2291646 -0.08918789 -0.2485663 0.40095592
000070 46 8b eb 3d 16 b6 8d bd fc fd fa be 32 f7 2a 3f
       0.11501174 -0.06919496 -0.490219 0.6678344
000080 6b 40 76 be a5 55 fb bd 33 6f 33 3d 04 b6 3f 3d
       -0.24048011 -0.12272195 0.04380722 0.046804443
000090 d8 cb 9f be d1 0f b4 bc 12 e6 c2 be 0f 85 33 be
       -0.31210208 -0.021980198 -0.38066155 -0.17531227
0000a0 35 7f 06 bf a2 1e 9e bc 15 49 ee 3d 6d 84 09 3f
       -0.5253785 -0.019301716 0.11635033 0.5371769
0000b0 64 f1 59 3e 18 c7 4a be eb 62 f8 bd 53 52 8e be
       0.2128349 -0.1980251 -0.12128242 -0.27797183
0000c0 66 5d b9 be 9c 5b 2a bf 96 73 80 be a3 a8 42 3f
       -0.3620407 -0.66546035 -0.25088185 0.7603857
0000d0 a4 cd ea be 5c b7 a2 be 9d 1a c9 be 51 d5 71 be
       -0.45860016 -0.31780517 -0.39278117 -0.2361653
0000e0 26 59 eb 3e 14 b6 0d bf 75 d7 79 3e 0c 0b 00 bf
       0.45966452 -0.55355954 0.24398597 -0.50016856
0000f0 0d 5b 18 be db 4f 1a bf af 13 7f be 8b 19 14 be
       -0.14878483 -0.602781 -0.24909852 -0.14462869
000100 e6 e0 23 bf 5b 79 4f bf ea f0 44 be e6 09 97 be
       -0.6401504 -0.8104455 -0.19232526 -0.2949974
000110 b2 82 3c 3e 0c ce 2e 3d 88 eb fd be 38 8c e9 be
       0.18409231 0.04267697 -0.4959376 -0.4561479
000120 84 27 a2 bc 16 c6 ba 3e 74 38 33 bd 84 ec 3e 3e
       -0.019794233 0.36479253 -0.04375501 0.18644911
000130 63 2e ad be 7b af 59 be 5c b2 21 be 91 8a 21 bf
       -0.33824453 -0.21258347 -0.15790695 -0.6310206
000140 3f 28 6e bd 1b 57 66 3c 2f 50 cf 3e 8f d3 9d be
       -0.05814385 0.0140588535 0.40490863 -0.3082547
000150 62 85 3e bf dd a9 28 3f 25 74 76 be 73 b7 26 be
       -0.74422276 0.6588419 -0.24067743 -0.16280918
000160 fe 33 8e be 37 de 35 3d 5b dc fa bc 95 88 5f bf
       -0.27774042 0.044401374 -0.030622652 -0.8731778
000170 53 7c a8 be 76 94 7d be 31 4c f3 3d 53 78 da 3c
       -0.32907352 -0.24763665 0.11879767 0.026668703
000180 96 c8 86 3e 9e 51 9f bd c2 26 37 be 2a 91 35 3e
       0.2632491 -0.07779239 -0.17885879 0.17731157
000190 6e 74 02 3f 95 ed b3 bb 95 84 de 3e 70 a9 31 3e
       0.5095891 -0.0054909685 0.43460527 0.17349792
0001a0 58 5a 13 bf b6 45 f7 3d 55 e8 4c bf 08 4d 21 bf
       -0.5755973 0.12073843 -0.8004201 -0.63008165
0001b0 9b 50 f5 3e 5a 97 8d 3e 9f 3b 85 3e 0f 0f b7 3e
       0.4791306 0.27654535 0.2602205 0.35753676
0001c0 b6 62 de 3e 99 35 86 be a8 67 73 3d a1 3d c1 be
       0.43434685 -0.26212767 0.059425026 -0.37742332
0001d0 34 5f 67 3f f9 99 17 3e b2 1d 17 3f 64 df 9e 3e
       0.90379643 0.1480483 0.59029686 0.3102981
0001e0 5d f6 45 bf b3 59 02 3f 2f 5d b7 be 9c a1 01 3f
       -0.77329046 0.5091812 -0.3581328 0.5063722
0001f0 a9 b6 f8 3d 07 53 8e bc 5d f4 14 3f c5 d7 bd 3e
       0.12144215 -0.017373575 0.5818537 0.37078682
000200 2c 96 09 3e f8 2c b0 3e 9a 03 b5 3e be 70 a7 be
       0.13436192 0.34409308 0.3535431 -0.32703203
000210 40 fb 2d be df e3 9d 3d 60 c6 d1 be 2a 3b bf 3d
       -0.16990376 0.077094786 -0.4097166 0.093374565
000220 38 51 7c 3e 92 3b 81 3d c6 c5 03 be 20 0e 8a 3e
       0.24640357 0.0631019 -0.12868413 0.26963902
000230 8b b0 ab be 64 9a 74 3e 93 0b 18 3f 1d 23 02 bf
       -0.3353313 0.2388702 0.5939266 -0.5083483
000240 a1 e7 39 3e 9a 16 19 3f 93 28 ab bb 3c 42 1c bd
       0.18154766 0.5980011 -0.0052233427 -0.038149104
000250 32 af 7d be 74 49 1c be 79 95 b4 be e5 a8 80 bd
       -0.24773863 -0.15262395 -0.3527029 -0.06282214
000260 3c 39 93 bd c5 c0 44 3e bd e0 fb 3d ca 0e bb be
       -0.07188651 0.1921416 0.12298725 -0.3653472
000270 f9 e1 56 3e 0c 31 b0 bd 66 03 8b 3c 18 44 1b 3f
       0.20984639 -0.08603105 0.016969394 0.6065078
000280 d5 60 8c 3d de 00 9c 3d f4 da da bd 2d 8b 0e 3f
       0.06854407 0.07617353 -0.10686293 0.55681115
000290 4c 63 4d bd 9f c5 44 3d 6a 13 b8 bd 35 8f a1 be
       -0.050143525 0.04804003 -0.08988078 -0.3155457
0002a0 1b 2b 1f 3e f8 f2 6e be ca dd a8 3e 29 27 a9 3e
       0.15543787 -0.23334873 0.32981712 0.3303769
0002b0 83 d7 15 3f ef 24 9d be 61 4c 32 be 25 eb 71 3e
       0.5853197 -0.3069224 -0.17411949 0.23624857
0002c0 43 7a a5 3e 43 b6 87 3e fb 80 b9 bd 9b 49 b4 be
       0.3231984 0.26506242 -0.09057804 -0.35212407
0002d0 bf 97 74 3d 9f c4 84 3e e1 92 34 3e 3b 37 bb bd
       0.05971503 0.2593126 0.17634155 -0.09141394
0002e0 d9 72 d1 3e 67 5c 6d 3d 06 02 a6 be 2f b2 15 3e
       0.40907934 0.05794945 -0.3242342 0.14618753
0002f0 7c a9 6d 3e 75 7c 26 be 34 76 cb 3c d6 d3 6c be
       0.23209184 -0.16258414 0.024836637 -0.23127684
000300 fa 03 66 3d ae 95 db 3d 2c c9 a6 bd 13 68 57 3e
       0.056156136 0.107219085 -0.08143839 0.21035795
000310 64 8b ca be 48 09 a9 be 56 49 c1 3b 99 c0 c4 3e
       -0.39559472 -0.33014894 0.005898635 0.3842819
000320 16 45 ce bd fa b6 10 be 99 b3 88 be 74 98 f2 3e
       -0.10071771 -0.141323 -0.26699522 0.47381938
000330 f4 f6 78 be 2f 28 4b 3d 80 b2 06 3e 6e d7 16 3f
       -0.24312955 0.04959887 0.1315403 0.5892247
000340 14 36 ca bd b7 ac e7 3e c5 ac 98 be c4 5b ce bd
       -0.09873596 0.45248958 -0.29819313 -0.10076097
000350 4e 24 29 3e a2 54 27 3e 37 71 07 be 28 c5 d5 bc
       0.16517755 0.16340879 -0.13226782 -0.026094988
000360 bb e4 24 bd c4 b9 03 3e e9 c3 44 3d 2c cc c0 3e
       -0.040257197 0.12863833 0.048038397 0.3765577
000370 b7 a8 e8 3d 7c 5a 26 be 0c e9 e4 be 92 41 2a 3f
       0.11360305 -0.16245455 -0.4470905 0.665063
000380 f9 c7 ed bd 7a 6d ba bc 0a ab de bd ef 15 e9 bc
       -0.116104074 -0.02275728 -0.10872467 -0.028452842
000390 60 4c 6d 3e 9c aa a3 bd c7 90 1e 3e 75 df 9a be
       0.23173666 -0.079915255 0.15484916 -0.3024861
0003a0 bc 9a de be 3e 0c 94 be 57 27 a9 3d 15 39 ff 3e
       -0.43477428 -0.2891559 0.082594566 0.49848238
0003b0 fa c7 03 3f 36 7a bf bd 33 d0 93 3d 50 6a 4d 3e
       0.51477015 -0.09349482 0.07217445 0.20060086
0003c0 13 bc c2 bd 5e 0a a6 be cf dd b1 be d8 00 49 3f
       -0.095085286 -0.32429785 -0.3473954 0.7851691
0003d0 eb d5 9f 3e 44 45 e8 bd 60 e4 9a 3e a5 84 ae be
       0.31217894 -0.11341336 0.3025236 -0.34085575
0003e0 18 fc a4 3e f5 10 e0 3c d8 0a 34 3e 14 f7 99 bd
       0.32223582 0.027351836 0.17582262 -0.075178295
0003f0 78 33 54 bd 76 10 2a 3d 20 40 4b be 1f 2b 9d 3d
       -0.051806897 0.041519605 -0.1984868 0.0767424

lstm.bias_hh_l0 f4 [256]
000000 b3 54 96 3e 73 dc 07 bd ca c2 9c bd fc 2c 82 3e
       0.29361495 -0.03316922 -0.076543406 0.25424945
000010 54 0e 1f bf 38 e1 0d bf 5e 37 52 bc f7 a6 8e 3e
       -0.6213124 -0.5542178 -0.012830583 0.2786176
000020 b2 46 46 be 9d 46 15 be 04 f0 13 bf 22 3f d3 3e
       -0.19362906 -0.14577718 -0.5778811 0.41259104
000030 2a 3e 83 be 3c 69 07 3e d2 06 5a 3e 54 0c 34 3f
       -0.25633365 0.13223737 0.21291664 0.7033131
000040 5c db c0 bd 13 21 c1 3e 99 0c 8c bd 67 a3 a9 bb
       -0.094168395 0.37720546 -0.0683834 -0.00517695
000050 e2 af 82 3e 07 d8 06 bf 8a 50 a0 bd 0b 24 20 be
       0.25524813 -0.5267338 -0.078278616 -0.1563875
000060 8a 7d 33 be 97 88 c4 bd 5f 52 a3 be 7e f6 da 3e
       -0.17528358 -0.09596365 -0.31898782 0.42766184
000070 cd 7a c4 bc b0 17 16 be bc a9 0d bf 69 b8 ff 3e
       -0.023984337 -0.14657474 -0.5533712 0.4994538
000080 c9 10 b2 bd ad 87 83 be 89 da 45 bd 9c b2 68 3c
       -0.08694608 -0.2568945 -0.048304114 0.01420274
000090 e9 5c 43 be ab bc e3 3d 77 8e 58 be e0 26 d4 bd
       -0.19078411 0.1111997 -0.21148096 -0.10358977
0000a0 4c 77 f0 be 5a 6f 74 be a8 4c 3f 3c 53 68 25 3f
       -0.46966016 -0.23870602 0.011675991 0.6461231
0000b0 64 ff bd 3e 65 e3 82 be 7f ca 16 be 20 a9 63 be
       0.3710891 -0.25564113 -0.14725684 -0.22232485
0000c0 92 8c 89 be 5c 09 0f bf 4d 0b 8c be 85 72 3b 3f
       -0.2686506 -0.55873656 -0.27352372 0.7322162
0000d0 60 5f f0 be e8 30 25 be 28 aa 39 be 6d 8f 31 be
       -0.46947765 -0.16131938 -0.18131316 -0.17339869
0000e0 8c d0 bb 3e 26 72 09 bf 74 72 78 3e 59 d3 14 bf
       0.36682546 -0.536898 0.2426241 -0.5813499
0000f0 4d ce 54 be d1 9d 13 bf 2a 16 8d be 29 d7 0b be
       -0.20781823 -0.57662684 -0.27555972 -0.13656296
000100 b3 aa 4f bf ab 36 38 bf e8 8f 86 be 72 aa c8 be
       -0.8111984 -0.71958417 -0.26281667 -0.3919254
000110 7e d6 3a 3e 0f 8b f6 3c ca ec aa be 24 3e e4 be
       0.18245885 0.030095605 -0.3338378 -0.4457866
000120 98 a2 69 3d 76 2e a8 3e 4a 12 4f bd e0 55 69 3e
       0.057039827 0.32847947 -0.05055455 0.22786665
000130 73 09 e2 be d4 51 91 be 3e e2 67 3d 53 f1 20 bf
       -0.44147834 -0.28382742 0.056612246 -0.6286823
000140 91 b3 26 be 0f 37 b7 3d 0b e3 06 3f 28 4c cd bd
       -0.16279437 0.089460485 0.5269019 -0.10024291
000150 62 47 1d bf 0d 08 23 3f 4c b5 b5 be aa f7 a3 bd
       -0.61437047 0.6368416 -0.3548988 -0.080062225
000160 9e 60 b4 be 14 d5 6f 3e ee 23 24 3c 3d 02 4a bf
       -0.35229963 0.23421127 0.010018332 -0.78909665
000170 82 b4 3b be 73 0f d7 be c9 63 92 3e aa a7 0f be
       -0.18330577 -0.42003974 0.28591755 -0.14028803
000180 30 31 7c 3e 68 e8 9c 3c 5e 93 34 be 2c 56 14 3e
       0.24628139 0.019153789 -0.17634341 0.14485997
000190 03 0e de 3e 83 41 31 3e 97 14 d7 3e 8c 5c cf 3d
       0.43370065 0.17310147 0.42007896 0.10125074
0001a0 1f 65 d4 be 09 4d 20 3e df 56 37 bf 70 cd e9 be
       -0.414834 0.15654387 -0.7161693 -0.4566455
0001b0 d4 2d 10 3f 06 ee c2 3e 95 b4 2c 3e b6 8f fb 3d
       0.5631993 0.38072222 0.16865762 0.1228327
0001c0 d1 57 50 3e b3 7a 83 be 8f 51 8b 3d 49 50 7c be
       0.20346 -0.2567955 0.068026654 -0.24640001
0001d0 6e 96 40 3f 77 5d 2a 3e c4 d4 0c 3f e7 49 d7 3e
       0.7522954 0.16637217 0.55012155 0.4204857
0001e0 23 4d 65 bf e1 0a 0a 3f e6 0a 83 be 38 14 f3 3e
       -0.89570826 0.5392285 -0.25594252 0.47476363
0001f0 8d 68 3a 3e 6d 14 c2 bd d7 90 37 3f 17 29 c7 3e
       0.18203945 -0.09476552 0.71705383 0.38898537
000200 b9 15 cb 3d 5c c7 d6 3e fa f0 de 3e 51 ec 06 bf
       0.09916253 0.41948974 0.43543226 -0.5270434
000210 57 d8 87 be 60 e5 13 3d 4c 92 80 be b4 1a b5 ba
       -0.26532242 0.03610742 -0.25111616 -0.0013817162
000220 b9 51 0d 3e bf b0 35 3d fc 8f aa bd 79 77 f6 3d
       0.13800706 0.04435801 -0.08328244 0.12034506
000230 30 89 97 be d5 86 51 3e 23 8f 0c 3f 2d 4f e5 be
       -0.29596853 0.2046159 0.5490591 -0.4478697
000240 06 28 a2 3d 58 fe 0c 3f 6e 29 89 3b 77 38 14 be
       0.0791779 0.550756 0.004185847 -0.14474665
000250 af 90 ca be 52 94 45 be 3b f0 a7 be b1 0f 94 3d
       -0.3956351 -0.19294861 -0.3280047 0.072295554
000260 84 c4 b4 3d f2 61 81 3d ec d7 8c bd e9 cd fe be
       0.08826545 0.0631751 -0.06877121 -0.49766472
000270 99 c2 92 3e d5 33 ff bb 74 46 1c be 84 37 30 3f
       0.2866409 -0.0077881613 -0.1526125 0.6883471
000280 2e dc 40 3d f3 ee 4e 3e a4 27 84 be c7 15 fa 3e
       0.04708498 0.2020834 -0.25811493 0.4884474
000290 f6 bb 6c bd 5f ca 11 3e 40 f3 b3 bd 5c be 20 be
       -0.05779644 0.14237355 -0.08786631 -0.15697616
0002a0 8c 45 e2 3d 34 6e 1e be 8e 1c bf 3e 03 b9 98 3e
       0.11048421 -0.15471727 0.37326473 0.29828653
0002b0 b9 1e 2d 3f 5d 0e 4e be 69 fb 73 be 3d ae 39 3d
       0.67625004 -0.20122667 -0.23826374 0.045332182
0002c0 63 42 a4 3e 20 54 99 3e 8d f8 c2 bd 7b 6e cb be
       0.320819 0.29946995 -0.095200635 -0.39732727
0002d0 a3 a1 95 3d bb 43 44 3e 3b b4 5a 3e 97 00 de bd
       0.073062204 0.19166462 0.21357815 -0.10839956
0002e0 d7 65 ef 3e 03 f6 82 3e 46 dd b3 be 01 76 0b bd
       0.46757385 0.25578317 -0.35129756 -0.034048084
0002f0 90 6a 85 3e 93 0b 1e be aa 39 05 3e 64 be 03 be
       0.26057863 -0.15434103 0.13010278 -0.12865597
000300 c4 d5 a9 3c 46 96 c2 bd 76 5c 92 bd 57 58 d5 3d
       0.020731814 -0.09501319 -0.07146542 0.1041724
000310 fa aa 9e be ca e5 a7 be 3e a2 01 3d f1 f0 9d 3e
       -0.3098982 -0.32792503 0.031648867 0.30847886
000320 f2 14 84 be 14 25 49 be e1 c5 ed be 98 9b bb 3e
       -0.2579723 -0.1964305 -0.46440032 0.36642146
000330 fe b5 d4 be e3 cd 63 3d 45 ea 23 3e d8 b7 2f 3f
       -0.415451 0.05561627 0.16007335 0.686399
000340 f6 29 7a be b6 1b 01 3f 91 19 9a be de 9c 01 be
       -0.2443007 0.5043291 -0.3009763 -0.12657496
000350 a5 49 8a 3e c0 d7 95 3e cf c2 7b be 11 aa 80 bc
       0.2700931 0.29266167 -0.24586032 -0.015706094
000360 4b 26 b4 bd 7f bf 9d 3d da 4f ff bc 46 d5 c0 3e
       -0.08796366 0.077025406 -0.031166006 0.37662715
000370 7a a2 c8 bc 83 fc 7d be fa 90 c7 be 38 4a 42 3f
       -0.024491537 -0.24803357 -0.38977796 0.758945
000380 4d 6e ae bd 86 5d 79 bd 5a b7 b3 3d 4c 53 12 be
       -0.08517132 -0.060880207 0.08775206 -0.14289588
000390 d7 72 14 3e e2 20 95 bd ab b2 81 bc 38 ee c5 be
       0.14496933 -0.072816625 -0.015832266 -0.3865831
0003a0 e2 47 e3 be 99 12 62 be 43 3b c1 3c 50 3f 0b 3f
       -0.4439078 -0.22077407 0.023587829 0.5439348
0003b0 f7 be fc 3e 1f 02 b0 3b f1 6a f3 3b 3e b1 60 3e
       0.49364445 0.0053713466 0.00742852 0.21942613
0003c0 f9 56 bc bd 6e cd 92 be a9 42 3f be a6 34 44 3f
       -0.09196276 -0.28672355 -0.18677773 0.76642835
0003d0 2f 7d 5f 3e b2 77 a8 be 6a a8 dc 3e 77 f6 bc be
       0.21825098 -0.3290382 0.4309724 -0.36906788
0003e0 d4 d8 ae 3e 40 a8 91 3d 66 aa 50 3e b7 92 54 bd
       0.34149802 0.07112169 0.20377502 -0.05189773
0003f0 93 85 f1 bd d5 19 65 bd 1c c6 53 bd 5c ff 23 3d
       -0.117930554 -0.05593284 -0.051702604 0.04003845

region_embedding.weight f4 [1600, 32]
000000 77 ab 62 bf 3c 10 32 3f 1f 90 96 be 38 94 93 3f
       -0.88542885 0.6955602 -0.2940683 1.1529608
000010 22 ee 8e 3f a3 93 89 be 23 8e 8a 3b 80 be 53 3f
       1.1166422 -0.2687045 0.00422837 0.82712555
000020 d7 e7 4d 3f 93 64 8b bf 44 4c f2 3e ab 1e bf 3e
       0.80431885 -1.0890068 0.4732381 0.37328085
000030 aa 1c ba bf 6d e8 b6 bf ca 63 ab bf c2 b7 e3 3e
       -1.4539998 -1.4289681 -1.3389828 0.44476134
000040 6d 10 78 3f 1b 50 b6 bf 3f 1e b0 3f 26 b7 3a bf
       0.96900064 -1.4243196 1.375923 -0.7293571
000050 e5 b9 c5 be 23 c7 c3 3e b7 b1 1a bf 2f 77 44 3f
       -0.3861839 0.38237867 -0.6042742 0.7674436
000060 03 f2 b4 be fb c5 82 be 59 a9 16 bf ce 3c b2 3f
       -0.3534089 -0.25541672 -0.58852154 1.3924806
000070 97 18 21 bf 1e 1a 80 3e 16 e8 16 c0 bd 6f 9c 3e
       -0.62928146 0.25019926 -2.3579154 0.30554
000080 30 8a 09 3f 04 5e 59 3f e4 e4 1c 3e fe 11 0a bf
       0.5372648 0.8490908 0.1532169 -0.53933704
000090 8e d7 d8 bf f5 7e a6 bf db 59 c3 bf 18 d5 36 bf
       -1.6940782 -1.3007494 -1.5261797 -0.71418905
0000a0 c7 49 40 3f 20 16 8c 3f 4a b8 1f 40 9e 67 b5 bf
       0.75112575 1.0944252 2.495623 -1.4172246
0000b0 f5 b4 a1 bf 80 c9 b9 3e 63 50 83 bc 9a f7 7f 3f
       -1.2633349 0.36286545 -0.016029542 0.99987185
0000c0 32 4d 48 3f 30 8b 3b c0 15 7f 98 3e ed bc 42 3f
       0.7824279 -2.9303703 0.29784456 0.7606953
0000d0 94 e7 18 c0 bf b4 d8 3d b9 5a 04 c0 af 44 96 bf
       -2.3891344 0.105813496 -2.0680373 -1.173971
0000e0 dd 77 c5 3f d5 51 f6 3e 2c 8f dc be 8a c1 13 bf
       1.5427204 0.48109308 -0.4307798 -0.5771719
0000f0 d3 eb 78 bf f4 1b f5 be 68 77 e7 bc 40 b3 ed bd
       -0.9723484 -0.4787289 -0.02825518 -0.11606455
000100 61 1c 16 bf 15 fc 0f 3f 7b 1c 69 3f 1c d6 a2 bf
       -0.5863705 0.5624402 0.9105908 -1.2721591
000110 25 95 5f bf c9 08 19 3f 60 5c 3b 3f 84 76 11 3f
       -0.8733695 0.5977903 0.7318783 0.56821465
000120 0f ae 47 be 45 72 f3 3f 60 8d 59 bf 43 db c7 3f
       -0.19499992 1.9019247 -0.84981346 1.5613788
000130 fd 1f df 3f 4d 3a 8e bf dd 4e 7e 3e c2 27 c8 bf
       1.7431637 -1.1111542 0.24834771 -1.5637133
000140 db 03 cd 3e c5 ae a5 bf 8b fb cc 3f 17 af 92 bf
       0.40042004 -1.294396 1.6014265 -1.1459683
000150 86 16 27 be c4 37 c5 3f fc 75 a3 3f 0c 9e 58 3f
       -0.16317186 1.5407643 1.2770381 0.8461616
000160 6a 17 a1 3f 2c e1 8c be a6 7c 58 be 89 c9 8d bf
       1.258527 -0.27515543 -0.211413 -1.1077129
000170 2e 47 2d c0 ab 56 90 3f ca 33 78 bf e0 91 41 3f
       -2.7074695 1.1276449 -0.96954024 0.7561321
000180 e6 15 b7 be da 96 b4 be 75 e1 dd be 93 73 26 3e
       -0.35758895 -0.3527134 -0.43336073 0.16255026
000190 c9 10 c0 3f 11 d2 14 3e c8 c7 a8 3d 5d 1a be 3f
       1.5005122 0.14533259 0.0824123 1.4851795
0001a0 74 37 9e bf 69 65 66 3f 51 f4 0c c0 35 b8 65 3f
       -1.2360673 0.8999849 -2.202412 0.897342
0001b0 ed 6e 77 3f 61 fc 47 3e 46 df 0a 40 fd 2a 69 3f
       0.96653634 0.19529869 2.1698775 0.9108122
0001c0 b7 e5 8c 3f 7b f8 af bd 0b 45 91 3e ae 47 01 bf
       1.1007603 -0.08592316 0.28372988 -0.505
0001d0 7e 76 5e bd 0c da 35 3e 5c 55 53 be ca 7a 36 3f
       -0.05431222 0.1775896 -0.20638031 0.7128111
0001e0 8f c8 11 bf 37 8e cc 3f e9 cc 31 3f 9a 03 60 bf
       -0.56946653 1.59809 0.69453293 -0.87505496
0001f0 52 12 39 bf e4 5c 83 bd c2 27 a6 be ba 5d 01 c0
       -0.7229358 -0.06414202 -0.32452208 -2.0213456
000200 01 34 82 3f 56 73 dd be 83 34 f3 3d 4a fa 8c 3f
       1.017212 -0.43252057 0.1187525 1.1013882
000210 d2 64 3b 3f 58 d1 cb bf d3 3c 62 3e 5c 4f 50 3e
       0.73200715 -1.5923262 0.22093515 0.20342773
000220 fe 46 45 3f 70 11 ad 3d 4c 95 6b 3f f3 2d 5c 3f
       0.7706145 0.084505916 0.92024684 0.8600761
000230 53 2e 8f bf 0a 91 b8 3e ed 98 5c bd f8 3f 2a 3f
       -1.1186012 0.36048156 -0.05385678 0.6650386
000240 ea 41 0c 3f 38 91 90 3f d7 cb ad 3f ff 06 a4 3f
       0.54788077 1.1294317 1.3577832 1.2814635
000250 2b d8 67 bd 72 4f 0b c0 ff e2 89 bf 18 d2 8b bd
       -0.05660264 -2.176724 -1.0772399 -0.068271816
000260 33 ac a6 bf 5c 16 c3 bf a5 13 93 bf 06 5d 99 3f
       -1.3021301 -1.5241199 -1.149037 1.1981514
000270 71 3e 43 bf cc 76 3c be cd 00 48 be 27 66 0c c0
       -0.76267153 -0.18404692 -0.19531555 -2.193735
000280 06 49 38 3f e9 0e 88 be ee 3e dd be ac bc ab 3e
       0.71986425 -0.26573876 -0.43212074 0.33542383
000290 58 51 f9 be f0 13 69 3f 0e ef 03 3f 7d 94 0d bf
       -0.48694873 0.9104605 0.51536644 -0.553047
0002a0 3e 29 ba 3f f4 3e 30 be c3 8e b7 3e 8b f0 52 3f
       1.4543836 -0.17211515 0.35851106 0.8239829
0002b0 1c 9f 33 3e 87 06 d1 be c8 e3 75 bd 94 6f c4 3e
       0.17541164 -0.40825292 -0.060031682 0.38366377
0002c0 65 12 eb 3e 86 9c dc 3d 57 92 98 bd 06 6e d7 3f
       0.4591247 0.10772042 -0.07449787 1.6830451
0002d0 e8 2d 6b 3e ec b7 15 c0 7e 69 60 bf 91 9b 44 3f
       0.2296673 -2.3393507 -0.8766097 0.76799875
0002e0 35 93 5a 3f d5 a7 09 3f 9a 5b af be 98 0e 12 be
       0.8538087 0.53771716 -0.34249574 -0.1426338
0002f0 fc 9a 02 bf 9d 51 d7 bf 5f c7 ad bb dd 15 4a bf
       -0.5101774 -1.6821781 -0.005303308 -0.7893961
000300 a8 68 ba 3d 91 1d 87 bf 7b 51 aa 3f 0e 47 ea 3d
       0.09101993 -1.0555898 1.3306116 0.11439334
000310 59 ac e7 be 65 8b 79 3f ac 15 86 bd 86 de a9 3f
       -0.45248678 0.97478324 -0.06547102 1.3271034
000320 39 ce 2e 3e bc ab eb 3d 3a 10 12 3f 24 b7 34 3f
       0.17070855 0.11507365 0.5705601 0.7059195
000330 cc 4b c3 be 4f b8 a9 bf d5 7c 51 be 5d 81 51 bc
       -0.38143766 -1.3259372 -0.20457776 -0.01278719
000340 97 ac 45 be 86 5e 6d 3f 54 69 3b bf 8f 23 fd bf
       -0.19304119 0.92722356 -0.7320759 -1.9776477
000350 c2 84 6a bf f3 ad 92 3d a2 c3 ab 3f cc 7c b7 3f
       -0.9160882 0.071620844 1.3419077 1.433496
000360 6c 13 54 bf e7 ae 66 3f 8b ca 0a 3f bc 97 1d 3f
       -0.82842135 0.9011063 0.54215306 0.61559653
000370 bb 98 3b bf 69 34 12 3f 75 f0 17 bf f0 75 fb 3f
       -0.73279923 0.5711122 -0.59351283 1.9645367
000380 61 75 03 bf 80 e2 dc 3e 6c 0e 29 3e 13 38 0f 40
       -0.5135098 0.43141556 0.16509408 2.2377975
000390 bf ed 22 bf 3f 32 9a be 30 64 1b bf 15 07 be 3f
       -0.6364402 -0.3011646 -0.6069975 1.4845911
0003a0 4f be c9 bf f3 a0 1e 3f 7d 3b 66 3f 4e a8 e7 3f
       -1.5761203 0.6196434 0.8993452 1.8098238
0003b0 ef 01 94 3f 67 79 ee be 06 12 90 bf 1a 6d 9f 3f
       1.156309 -0.46576998 -1.12555 1.245517
0003c0 7c 76 7e 3f 53 ab 92 bd 08 e9 54 bf ea ad 03 3f
       0.9939954 -0.07161584 -0.8316808 0.51437247
0003d0 28 9c 08 be 02 6d 34 3f e5 c5 13 bf 4b 13 a3 3f
       -0.13340819 0.7047883 -0.5772384 1.2740263
0003e0 f8 41 04 c0 ce 22 68 bf 79 23 86 3f ca 02 56 bd
       -2.0665264 -0.9067811 1.0479575 -0.052248754
0003f0 13 f9 8f bf ce a4 11 bf 3b e7 8a bd 85 92 e3 be
       -1.1247886 -0.56892097 -0.06782385 -0.44447723

indicator_embedding.weight f4 [90, 16]
000000 81 24 20 c0 da d9 90 bf 1c 8f ef be ca e4 f2 be
       -2.502228 -1.1316483 -0.4678887 -0.47440177
000010 36 ce f3 be 90 1e 21 3f 01 e0 9e 3f e3 d1 bf 3f
       -0.47618264 0.6293726 1.241211 1.4985927
000020 2a 7a 54 3f cf 1c 6a 3f 83 fa 04 3f 8b 91 d8 be
       0.8299891 0.9145021 0.5194475 -0.4229854
000030 89 18 ec bf 9c 7e c4 3d f0 f9 9d 3f a7 db bc bf
       -1.8444988 0.09594461 1.23419 -1.4754533
000040 68 28 80 be a9 be 25 3e 30 65 9c 3e 25 9a bf bd
       -0.25030828 0.16186012 0.3054595 -0.093555726
000050 c6 1a 93 bf 64 88 91 3e f3 9d 03 3f cc 21 10 bf
       -1.1492546 0.2842437 0.51412886 -0.5630157
000060 41 d1 50 bd cb 55 cd be 28 85 8f bf 6d a6 e1 3e
       -0.05098081 -0.40104517 -1.1212511 0.44072285
000070 b2 4f c1 3e 41 12 59 bf 23 f7 9d 3e 64 c7 22 bf
       0.37756115 -0.8479348 0.30852613 -0.63585496
000080 e3 96 d7 bf 75 d7 ef be bc 4b 3b bf 29 ba f8 bf
       -1.6842922 -0.46844068 -0.73162436 -1.9431812
000090 02 3d a6 bf 8a 0b d7 be 01 af 45 bf 08 65 99 bf
       -1.2987368 -0.4200099 -0.7722016 -1.1983957
0000a0 24 ab 15 3f d2 78 d1 3d 78 e4 c7 3f 58 28 97 bf
       0.58464265 0.10228123 1.5616598 -1.1809187
0000b0 44 1a 3b be 15 42 01 bf af b7 bc 3e 27 41 fe be
       -0.18271738 -0.5049146 0.3685889 -0.49659082
0000c0 2f 4c 58 3f 03 ab f7 be 2d 84 20 3f 17 13 b5 be
       0.84491247 -0.4837266 0.62701684 -0.35366127
0000d0 59 8a 18 bf 6c a3 a2 bf d5 68 9a bf 61 1c c7 3e
       -0.595861 -1.2706122 -1.2063242 0.3888884
0000e0 39 fa e0 3e bd 16 dd 3f 8f c3 bf bf cd 26 f9 3f
       0.43940905 1.7272564 -1.4981555 1.9464966
0000f0 c7 6b c9 bf 99 7a 05 40 84 58 39 bf 45 3e 32 bf
       -1.5736016 2.0856078 -0.7240069 -0.69626266
000100 60 1d 51 3f 41 00 05 c0 2c e1 88 bf 5f fe 41 3f
       0.8168545 -2.0781405 -1.0693717 0.75778764
000110 60 2d d6 3e d4 0a 31 bf 6d 7e 19 3f 50 38 25 3f
       0.41831493 -0.6915715 0.59958535 0.6453905
000120 4f 58 3c 3f 20 50 8a bf a2 6a c3 3d 18 3f 3d 3f
       0.7357225 -1.0805702 0.09541823 0.739244
000130 5e 15 b5 bf 66 1f ad 3e 73 f0 12 be ea 32 f4 be
       -1.4147146 0.33813018 -0.14349537 -0.47695094
000140 c4 92 79 bc c8 73 66 3f 81 07 7b bf ea 79 33 bf
       -0.015232746 0.9002042 -0.98058325 -0.701079
000150 6f 77 52 3f 6a 98 fb be 3d b3 7e bf fd 3a 01 be
       0.8221349 -0.4913972 -0.99492246 -0.12620158
000160 75 79 47 3f 6d 4c b0 3e d8 72 b3 be 57 a8 c2 3e
       0.77919704 0.34433308 -0.35048556 0.38019058
000170 ab a9 a3 bd 84 19 06 bf b0 95 29 bf 2e 34 60 3f
       -0.07991346 -0.52382684 -0.6624403 0.8757962
000180 7c 9d 2d 40 60 36 2b 3f 52 54 04 3f 77 c9 ee 3f
       2.712737 0.66879845 0.5169116 1.8655232
000190 e5 ef 13 bd d9 30 ac bf c7 88 cf bf 62 2f 75 be
       -0.036117453 -1.3452407 -1.6213616 -0.23943856
0001a0 a9 e1 ae bf 86 fd 16 3d 35 8f 8d 3e 6b c2 bb bf
       -1.3662616 0.036862873 0.2764832 -1.4668707
0001b0 ed 5c 11 3e be 9a f1 3e ed 34 00 3d 1e cc 5d 3f
       0.14195605 0.4718837 0.031300474 0.86639583
0001c0 3e c2 9e bf 71 68 06 3f a3 67 92 be 9b c8 d0 3f
       -1.2403028 0.52503115 -0.28594694 1.631122
0001d0 7e 53 99 be 80 b2 66 3e a0 5b de be 6c 0e 1e bf
       -0.29946512 0.2252903 -0.4342928 -0.61740756
0001e0 08 10 16 3f c1 8d bb bf e7 a9 a3 bf c4 ac 33 3e
       0.5861821 -1.4652635 -1.2786225 0.17546374
0001f0 e2 6e 12 40 8d 6f 0d 3f 16 c2 1d 3e 80 3c d5 3f
       2.2880177 0.5524834 0.15406069 1.6659088
000200 38 d3 72 3f c7 96 14 3f 2e ba 98 be fb e3 5b bf
       0.94853544 0.5804257 -0.29829544 -0.85894746
000210 f5 d4 c6 be 74 5f 5f bf 16 4a c2 bc fb c1 d3 3e
       -0.38834348 -0.87255025 -0.023716968 0.41358933
000220 d0 3b b9 3f 65 bc ff 3d 26 37 75 be a1 13 d5 3f
       1.4471378 0.12487105 -0.23946819 1.6646615
000230 41 5d e6 3f f1 56 67 bd 96 3f 54 3f 02 11 87 3f
       1.7997209 -0.0564794 0.82909524 1.0552065
000240 38 0d 88 3f 42 db 8b 3e c7 62 93 3c c0 00 60 bf
       1.0629034 0.27315718 0.017991437 -0.87501144
000250 55 0a 29 be ee 27 54 3f d4 4e 0b c0 e6 10 2a bf
       -0.16507848 0.8287343 -2.1766863 -0.66432035
000260 e0 38 1f be 7b d5 84 bf 33 06 b6 bf 58 ad 1b bf
       -0.1554904 -1.0377649 -1.4220642 -0.60811377
000270 ff 58 65 3f 4c 5c 3e 3c 36 84 93 bf 41 0f cf 3e
       0.8958892 0.011618685 -1.1524723 0.40441325
000280 c5 14 2a 3e 55 17 e0 be 73 ee f5 bd 0d 1f 87 3e
       0.16609485 -0.437678 -0.12008371 0.26390877
000290 27 de bc bf 7d dc f5 3e 89 08 ce bf 5d 1e bd bf
       -1.4755296 0.48019782 -1.6096355 -1.4774891
0002a0 8e dc dd 3f b5 2d bc bd cf cf e8 bf ec 2e 39 be
       1.7332933 -0.091884054 -1.8188418 -0.18084306
0002b0 82 81 9d be 52 3d 59 3f 83 d7 d4 bf b9 92 ed bf
       -0.3076287 0.8485919 -1.6628269 -1.8560401
0002c0 32 d5 36 bf f0 3f 65 be e1 04 ec 3e 35 34 b4 3f
       -0.7141906 -0.22387671 0.46097472 1.4078432
0002d0 fa bc 07 bf 27 6a a7 be da 84 46 bc 2d b4 a7 3f
       -0.5302273 -0.32698175 -0.012116635 1.310186
0002e0 f7 1a 86 bf de e1 92 bf 0e 26 0b 3f 33 7d 2d bf
       -1.0476979 -1.1475179 0.5435494 -0.67769164
0002f0 5d 6f 3f 3f a4 f8 93 3f 55 5b 29 3f 7e 33 35 40
       0.747793 1.1560254 0.66154987 2.8312678
000300 70 2a 78 3e 45 41 38 3f bc 5c 05 3f 93 df 17 bf
       0.24234939 0.71974593 0.52094626 -0.5932552
000310 55 72 a0 bf d1 8d d0 bf c7 ed 34 3f 9a 28 99 bf
       -1.2534891 -1.6293279 0.7067532 -1.1965516
000320 dd cd ba bf e2 f6 d5 be 03 c9 64 3f 3b c1 28 bf
       -1.4594074 -0.4178992 0.8936922 -0.65919846
000330 ca aa ca 3e 1d f3 82 bf 01 56 64 3e c2 89 6d 3f
       0.39583427 -1.0230442 0.22298433 0.92788327
000340 74 0d cb 3e 03 c9 e9 3e ba d6 27 bf bb cd 5c bf
       0.396587 0.45661172 -0.6556202 -0.8625142
000350 27 ab 96 bf 12 7e fc bd 54 4d bd 3e cf 25 7d 3f
       -1.1770982 -0.123287335 0.3697306 0.98885816
000360 04 90 ed be 07 0b 8e bf f6 c3 a4 bf 2a 07 a5 3f
       -0.46398938 -1.1097115 -1.2872303 1.2892811
000370 52 09 0d 3f f6 e8 b5 be 05 2a 14 be 3e 93 f2 be
       0.55092347 -0.35529298 -0.14469154 -0.47377962
000380 7a 5a 13 40 62 8b 9b bf e7 8f c2 3f 9a 75 1f bf
       2.3023973 -1.2151911 1.5200166 -0.6228882
000390 bc 19 95 bf df 1f da 3f fa 26 66 bf 5e 2e aa bf
       -1.1648479 1.7040976 -0.89903224 -1.32954
0003a0 0b 30 ce 3e 46 ca 3c be 10 8c 2d bf e7 f7 85 3f
       0.4027103 -0.18436536 -0.67791843 1.0466279
0003b0 28 38 48 be 36 67 e2 3f 8a 55 07 3f 62 97 1c bf
       -0.19552672 1.7687747 0.528649 -0.6116849
0003c0 c0 4b 2c 3e 84 c6 96 be 77 8d 81 3f 1f 7b a5 bf
       0.16825771 -0.2944833 1.0121297 -1.2928199
0003d0 93 b3 53 bf 43 7f 0b 3f a8 a3 6f 3f 30 e9 03 3f
       -0.82695884 0.5449106 0.93609095 0.5152769
0003e0 79 0f 2f 3e 05 0c 04 c0 69 58 1c 3e bf c0 03 40
       0.17095746 -2.0632336 0.15268101 2.0586393
0003f0 1c 06 77 3f 4d 07 8f be 69 51 4b 3f 1a 60 3b 3f
       0.964937 -0.27935258 0.794211 0.73193514
